model/model.pth (torch, 17216 bytes, 4 tensors)

linear1.weight f4 [256, 11]
00000000: 3055 a43d 50ac 7a3e 3ec2 813e 3e17 f3bd
00000010: d333 8ebe 4bf3 49be 2285 6cbe 4066 a03b
00000020: c8b8 53be 3e72 68be 56ae 91be c8ed b73d
00000030: 0c72 b33d 70df 313d 7613 0b3e 7d36 1e3e
00000040: 8ba3 69bb fd61 1ebe de84 8ebe 43ec ce3d
00000050: 3d95 8fbe d09a 343e a007 c33c e861 c2bd
00000060: 2986 12be 9726 7fbe c0f2 363e b738 5f3d
00000070: 831e 94be 0828 fcbd 9db1 88bd 93d8 49bd
00000080: 6142 27be 55fe 663e b4b2 b23d 1852 8a3d
00000090: 5c00 913d 4cff 373e 19f7 bf3d 70f5 a43d
000000a0: a33c 7abe d81e 92bd d008 8cbc 26cf 723e
000000b0: e072 6dbe 7050 99bc f48d 7bbe 6d2a 90be
000000c0: 8117 403e 6914 5a3d 11ff 253c fa15 23be
000000d0: f144 e03d a983 3f3e 5c2e 0d3d bfd0 97be
000000e0: 9a1d 87be f0a8 813c b121 653e e028 723e
000000f0: 3d91 43be a779 69be 6454 513e 8d68 7c3e
00000100: a5b4 403e a22f 7abd fce4 82bd 778a 83be
00000110: 8000 833e 1cc3 183e ced3 38bd a5be cebd
00000120: 2880 803e 9426 7bbd 53b0 2d3e dba1 38be
00000130: 688c 163e 1274 a73d 1c82 0d3e 941a 88bd
00000140: b9a7 023d 511c 32be c312 5dbd b379 eebd
00000150: c0dc 0ebe 6b8f b13c 57d6 10be e35c 0bbe
00000160: a088 0b3d 6687 3f3e d8e1 97be 7841 0ebd
00000170: 289b 173d 8c10 a4bd c045 2e3e c4f8 3f3e
00000180: 4e0f 02be ce7d b4bd e72e 39be 1f19 7d3e
00000190: 4183 99be 00c0 ac3a 7b13 88be d29d 0bbe
000001a0: 710a 583e eacb 9fbc a4df 863e 40da 2a3e
000001b0: 4bc5 963e 4dd1 5c3d 24f1 59be 101f 76be
000001c0: 26f1 38be 26fe 8a3e 61dc 99be ca30 5fbe
000001d0: de4d 8e3e 0f5f 98be 6d66 27be 2be3 f0bd
000001e0: cd74 93bd 1de9 783e 40e5 babd 205f 4a3c
000001f0: 4640 99be 0f3a 68bd 20b4 713c 80f5 f6bc
00000200: d017 55bd 39a7 82be f72f de3d a87e e53d
00000210: 969a 913e 5050 943e b6f2 253e 542b 74be
00000220: 2252 90be 3e30 8bbe 026b 8fbe 8075 543c
00000230: f573 86be 04fa 46be b89c 733d 428b e53c
00000240: 9075 1abe a09e 703e 36f9 18bd ff74 8f3e
00000250: f000 963e 8df2 81be ea75 45be 6e52 9c3e
00000260: 5e9b 5aba 5c9c 8bbd 73bf 2f3e acc4 c6bd
00000270: cb88 95be b5e7 89bc 71dc 793e c0f1 903d
00000280: 7519 9bbd b05e 6abe d11a 4c3e 0bdb 71be
00000290: 3c97 5b3e 7f0b 1e3e 90aa e6bd c614 83be
000002a0: 10bc 0e3e 17d2 4ebe cbf2 d3bd a3af 30be
000002b0: 6871 243e f235 3a3e 842a 383d dbeb 653e
000002c0: 43c3 16be 008c d43c deaa 923e f479 cc3d
000002d0: 9759 10be fc62 223e 009d c5bc 4056 21bc
000002e0: 608e d73c a8b2 43be 5479 7cbe 75f7 823e
000002f0: f8a2 233d 8cb9 943e 2ab0 b43d 15c2 1d3e
00000300: fd08 463e f206 40be 948b 543e d161 833e
00000310: aaa9 6d3e b772 2e3e d7be c9bd a0c2 55be
00000320: 7485 ef3d 062b 96bc 20f4 093e 69b4 1cbd
00000330: eb31 943e 9406 143e 0d16 973e 9b18 8639
00000340: c8c6 9bbe 4ac5 6dbe 04bb 713e ec4c 3e3e
00000350: 20fc 613d 3e0a 763e 5388 613e d1d2 80be
00000360: e6fe 893e d5fb dfbd 32c9 123d 6c80 5dbe
00000370: 26e2 7bbe 8c10 723e 8065 763e 5e14 9dbe
00000380: 954a 803e 5cf9 86be 1dce 543d 38ec 11be
00000390: bdf9 093e f55c 923e 2e56 59bc a023 4d3d
000003a0: 2cd8 81bd 626b 62be 8d35 4fbe 7cdd d4bd
000003b0: 16ad 3bbe aac7 843e c8b6 5a3e b866 f4bd
000003c0: a6fe 0cbe 2561 233d 14ac 6dbe bfba 25be
000003d0: 623e 4b3e a500 833e 62af 333e f376 233e
000003e0: 9cd4 383d 6882 2ebd 40e3 1abe 7cb4 c0bd
000003f0: 34f0 c3bc ec3f 323e b443 343e f11b 7fbe
0.08024061 0.24479795 0.25343508 -0.118696675 -0.27773914 -0.19721715 -0.23097661 0.0048950016
-0.20675957 -0.2269983 -0.2845332 0.089809 0.08761987 0.043425977 0.13581643 0.15450473
-0.0035650458 -0.15467067 -0.27835745 0.10103657 -0.28043547 0.17637181 0.023807347 -0.094913304
-0.1430899 -0.24917065 0.1786604 0.054497447 -0.2892953 -0.12312323 -0.06674502 -0.049278807
-0.16333915 0.22557957 0.08725491 0.067539394 0.07080147 0.17968482 0.09373302 0.08054626
-0.24437194 -0.07134789 -0.017094046 0.23711833 -0.23188353 -0.018715113 -0.2456587 -0.28157368
0.18758966 0.05324212 0.010131613 -0.15926352 0.109506495 0.18702568 0.03446804 -0.29651448
-0.26389772 0.015827626 0.22376134 0.23648405 -0.19098373 -0.22800313 0.20442349 0.24649258
0.1881891 -0.061080582 -0.063913316 -0.25691578 0.2558632 0.14918178 -0.045123868 -0.10094956
0.25097775 -0.061316088 0.16961794 -0.18030493 0.14701998 0.081764355 0.13819164 -0.066456944
0.031898234 -0.17393614 -0.05397297 -0.11644306 -0.13951397 0.021674832 -0.14144264 -0.13609652
0.034065843 0.18703994 -0.29664493 -0.034730405 0.037013203 -0.080109686 0.17018795 0.1874724
-0.12701151 -0.08813058 -0.18084298 0.24716614 -0.2998295 0.0013179779 -0.26577362 -0.13634422
0.21097733 -0.019506413 0.263425 0.16684818 0.29447398 0.053910542 -0.21283394 -0.24035287
-0.18060741 0.27147025 -0.30050948 -0.21795955 0.27793783 -0.29760024 -0.16347666 -0.11762079
-0.07200012 0.24307676 -0.09125757 0.012351781 -0.2993185 -0.056695994 0.014752418 -0.03014636
-0.052024662 -0.25518206 0.10848992 0.112057984 0.28438252 0.28967524 0.16205868 -0.23844653
-0.28187662 -0.27185243 -0.28011328 0.012967467 -0.26260343 -0.19431311 0.05947563 0.028020505
-0.15083909 0.2349801 -0.03734704 0.28018948 0.2929759 -0.25380364 -0.19283262 0.3053164
-0.00083391916 -0.068169326 0.17162876 -0.09705481 -0.29205927 -0.01683412 0.24400498 0.0707736
-0.07573215 -0.22887683 0.19932105 -0.23618715 0.2144441 0.15434073 -0.11263001 -0.25601786
0.13938928 -0.2019733 -0.103490435 -0.172545 0.16058886 0.18184641 0.04496242 0.22453253
-0.14722924 0.025945663 0.28645986 0.09984198 -0.14096676 0.15858072 -0.024122715 -0.009847224
0.026313007 -0.1911112 -0.24655658 0.2557942 0.03995034 0.2904781 0.08822663 0.15406068
0.19339366 -0.1875265 0.2075637 0.25660565 0.23209253 0.17035948 -0.09850853 -0.20875025
0.11695376 -0.018331062 0.13472033 -0.03825799 0.28944334 0.14455634 0.2950901 0.00025576804
-0.30425096 -0.23219791 0.23606497 0.18584031 0.055172086 0.24027345 0.2202466 -0.2516084
0.26952285 -0.10936705 0.035836406 -0.2163102 -0.24597988 0.23639125 0.24062157 -0.306796
0.25056902 -0.2636212 0.051954377 -0.14250267 0.13474174 0.28586546 -0.013265176 0.050082803
-0.0634006 -0.22111276 -0.20235272 -0.10393807 -0.18327746 0.25933582 0.21358788 -0.119336545
-0.13769016 0.039887566 -0.23210174 -0.16184519 0.19848016 0.2558643 0.17547372 0.15963344
0.045124635 -0.042604834 -0.15125751 -0.09409425 -0.023918249 0.17407197 0.17603952 -0.24913003

linear1.bias f4 [256]
00000000: dc0a 7d3e 4572 903b 039b 013e 6277 8bbe
00000010: daec d03d b434 0cbe d7d7 c43d e2b1 183e
00000020: ea9d 90be 671c fbbd 6418 843d 1b84 ee3c
00000030: 0069 d03a 357d 833e 2c05 223e 3196 633d
00000040: fe74 42be 9a10 06be a72e 783e 15c1 04be
00000050: 6fc7 5cbd b6c6 43be fd70 133e c1ff db3b
00000060: 3da1 c13d 8adb 8b3e 178b 4f3e e1da ddbd
00000070: b75c 2b3e 8e69 8a3d 52f7 3abe 6119 8ebe
00000080: 0eae 313e be67 21be 3ac6 f33c 95ff 183e
00000090: 03f2 9bbe 217b 54be 8ccd 833e cb17 183d
000000a0: c594 043e fd4f 8c3e 9eb6 2ebe 58ed 423e
000000b0: 3aa1 f53d 10a6 953e 0fdc e9bd 9e6c 843e
000000c0: 4bad 253e 19c1 5abe c992 493e 94d1 63bd
000000d0: b43d 6ebe ddcc 29bc da76 643d 76ca a2bc
000000e0: e100 ca3d a85f 3cbd 5ea7 e83d d679 1d3e
000000f0: f354 ecbd f187 a43d 8922 8f3e f2ba 23be
00000100: 6f5a 5abe eea0 c8bd 8818 87be 68f4 733e
00000110: d6a9 b23d 593e 503e 9539 0bbe 5b58 48bc
00000120: e21e 443e ffae 8fbe 9bb1 a73b e441 013c
00000130: 7c36 71be faef d33d 566c 853e 37f3 2a3e
00000140: 6ceb e4bc 5677 32be 2508 9a3d 16dc 4e3e
00000150: 8f86 653d 3f77 2fbe c54c e53d 9903 023d
00000160: 6967 cb3c 356f 7dbe 2582 c3bd 2e7d e6bc
00000170: 8934 9abd e237 703e bdaa 263e ea54 833e
00000180: ae59 9dbc fc7f 95be df51 a2bc af78 48be
00000190: 67df 763e 7435 0bbc d657 8cbe 92b2 70be
000001a0: de86 5b3e 62d3 a73c 13ad ab3d 7624 6dbe
000001b0: f4d0 92be a440 113d bb0a 023e 5d32 f53c
000001c0: c38b 9abc bb14 8dbe cbbb 21be 3c12 a13d
000001d0: 86ea 863e 4574 5c3e 36da 30be c99d 6e3e
000001e0: 5a71 4ebe e930 41be c49c fb3c 2de3 06bd
000001f0: 05b0 58be f046 a43d ba3c 9a3d 42b3 603e
00000200: 2062 4b3e 168f 9dbe e226 a7bd c442 783e
00000210: 9041 053e 5c7a e63d 4021 3d3e ae02 28be
00000220: 1657 803e 20f9 67be 4bbc 5f3e d6aa 233e
00000230: c01e 763e e555 5d3d 0fb8 703e 9ce5 713d
00000240: b739 8cbe 4840 743e 884b e6bd fa55 5ebb
00000250: 790c 7bbd 71f7 bebc e977 683e 148b 59be
00000260: 9ba1 0dbe 1fc2 9ebc 354f 593e 5c7d 30be
00000270: b110 7f3e a462 673d a87e 3ebe 4933 033e
00000280: ed56 6abd 9fe1 c1bc fd48 74bd fe84 cabd
00000290: 69fa 91bd 10e0 1fbe 991e cebd 2cd8 793d
000002a0: c87d 573e e0b9 8d3e 8354 8c3e 8c19 713e
000002b0: 3a2f 883e c633 17be 1209 dc3d 00f8 a53d
000002c0: 6f03 103e f8b8 efbd 6705 a73c 3f49 8ebe
000002d0: 72c8 7fbe 1829 ed3d 5d42 89be db7e 083d
000002e0: 33c7 07be ad04 673e 2a47 2ebd f4b2 33be
000002f0: 08d0 33be 5ed0 7f3e 9692 0abe c4bd 35be
00000300: fc90 233d 317b 0b3e ca09 95be 97c6 d63d
00000310: 416a 0cbe 498c d3bc 707e 2e3d 589d 503e
00000320: 4bb1 053e 5972 043c fc4f 17be 243f ddbd
00000330: af52 5cbd 6b58 8d3e 9b3e 59be fe3d 16bd
00000340: d07b 89be 767f 163e 1c3f 693e 902b 7fbe
00000350: 3a21 e9bd 1ca1 55be 1de4 843e e5a8 c03d
00000360: 6d6c 89bd 75d0 5b3e 591f a0bd f37f 1fbe
00000370: 65cc 063e c754 06bd 3f5d 5c3e 6d22 be3d
00000380: b498 733d 5d6b 9abd 1baa e83d bf8c 4c3d
00000390: 7383 68be 97ba 6cbe 00f6 36be bc31 ba3c
000003a0: 65e4 04bd 224e d2bd 904b 1fbd 233c ac3d
000003b0: 4a07 273e 3d71 a6bc bae3 82be b9d2 6ebe
000003c0: 6df2 103e 2074 5d3c 62de 6e3e a61b 06be
000003d0: 71ab babd 004e a0bb 3f69 27be 31cc 823d
000003e0: c932 fabd ce56 963d c003 a3bd 106c ab3d
000003f0: 974e 0dbe f59c 34be 5b76 823d 6e0d bfbd
0.24711174 0.0044081532 0.12656789 -0.2723952 0.10201426 -0.1369198 0.09611481 0.14911607
-0.2824548 -0.12261277 0.06449965 0.029115727 0.0015900433 0.25681463 0.15822285 0.055563156
-0.18989941 -0.1309227 0.24236546 -0.1296428 -0.053901132 -0.19118771 0.1439857 0.006713838
0.09454582 0.27315933 0.20267902 -0.108327635 0.16734587 0.06758414 -0.18258408 -0.27753738
0.17351553 -0.15762231 0.029757608 0.14941247 -0.30458078 -0.20750095 0.25742757 0.037132066
0.12947376 0.27404776 -0.1706185 0.19035852 0.11993642 0.29228258 -0.11418926 0.25864118
0.16179387 -0.21362723 0.196849 -0.05561979 -0.23265725 -0.010363785 0.05577741 -0.019871932
0.09863449 -0.045989662 0.11360048 0.15378508 -0.1153964 0.08033741 0.27956036 -0.15989283
-0.2132356 -0.0979632 -0.26385903 0.23823702 0.087238 0.20336284 -0.13596185 -0.012228097
0.19152406 -0.280632 0.005117608 0.007889245 -0.2355594 0.10348506 0.26059216 0.16694342
-0.02794429 -0.17428336 0.07521085 0.20201144 0.05603653 -0.17135333 0.11196283 0.031741712
0.024829583 -0.24749453 -0.095463075 -0.028135862 -0.075295515 0.23458818 0.16276069 0.25650722
-0.019207802 -0.29199207 -0.01981443 -0.19577287 0.24108659 -0.008496631 -0.27410764 -0.23505619
0.21438166 0.020486537 0.08382621 -0.2315844 -0.28675044 0.035462037 0.12699406 0.029931242
-0.018865472 -0.2755488 -0.15794294 0.07864806 0.26350802 0.21528728 -0.17270741 0.23302378
-0.20160428 -0.18866314 0.0307144 -0.032931495 -0.21160896 0.08021343 0.07531114 0.21943381
0.1986165 -0.30773228 -0.08161713 0.24244219 0.13013291 0.11253807 0.18469715 -0.16407272
0.2506644 -0.22653627 0.21849172 0.15983137 0.24035168 0.054036994 0.23507713 0.059056863
-0.27387783 0.23852646 -0.11244875 -0.0033925758 -0.06129119 -0.023311349 0.22701992 -0.2124446
-0.13831179 -0.019379674 0.21221621 -0.17235321 0.24908711 0.056490555 -0.18603003 0.12812532
-0.057211805 -0.023667155 -0.05963992 -0.098886475 -0.0712784 -0.15612817 -0.1006443 0.060997173
0.21044075 0.27680874 0.27408227 0.23544902 0.2659853 -0.14765844 0.107439175 0.08103943
0.1406381 -0.11705202 0.020388318 -0.27790257 -0.24978808 0.11580104 -0.26808444 0.033324104
-0.13259582 0.22560377 -0.042548336 -0.17548734 -0.17559826 0.2498183 -0.1353248 -0.17748171
0.03993319 0.13621213 -0.2910903 0.10487097 -0.13712408 -0.02582373 0.04260105 0.20372522
0.13055913 0.008083903 -0.14776605 -0.10803059 -0.05378979 0.2760652 -0.21215288 -0.036680214
-0.26852274 0.1469706 0.2277798 -0.24918962 -0.113832906 -0.2086224 0.25955287 0.09407214
-0.06710134 0.21466239 -0.07818479 -0.15576153 0.13163908 -0.032795694 0.21519946 0.0928391
0.0594718 -0.07540009 0.1136057 0.049938913 -0.22706394 -0.23118053 -0.17867279 0.022728793
-0.032444376 -0.10268809 -0.03889042 0.08409908 0.16311374 -0.020317668 -0.25564367 -0.23322572
0.14154978 0.013516456 0.2332702 -0.13096485 -0.09114731 -0.004892111 -0.16348742 0.06386603
-0.12216718 0.073407754 -0.079597 0.08370221 -0.13799511 -0.17638 0.06370231 -0.093287334

linear2.weight f4 [3, 256]
00000000: 1484 efbc 25c9 ce3c 1936 a63c a261 373d
00000010: efaa 83bc c92c 21bc 93c7 943c 292a 123d
00000020: 2477 02bd 4c40 3fbd 7862 53bd 0b76 40bd
00000030: 0838 143c 889e 413d 7506 2fbd 1684 7b3b
00000040: 1045 c93c 3657 aa3b f6c8 003d df13 8e3c
00000050: 133b f33c 80c7 733c 45a9 083d e721 0abd
00000060: 3498 15bb 85bb c1bb 4517 47bc 9a96 433d
00000070: 08a5 21bd 5d7b ae3b c4c7 40bd 29c4 27bd
00000080: e424 533c c237 253b 0a12 c8b9 2606 cb3c
00000090: 57b8 f23c 4f81 4ebd 8b83 95bc 87f0 13bd
000000a0: ed36 5e3d 2142 47bc 5758 10bd 1750 7dbc
000000b0: 6af9 803c 666d 2fbd 8e03 7cbd 7cc2 3bbd
000000c0: 2c8b b4bc 6f00 a73c 6369 f33c d56d 593c
000000d0: 7925 0f3c 4c15 ec3c 68c1 6d3c 8581 e33c
000000e0: 12c3 243d b25a a23a 1e0d 84bc 5f07 ebbc
000000f0: 23a2 273d 2a0f 683c d1c8 3c3d cfe2 26bc
00000100: 6483 3c3d 0006 293d 227c 50bd 8cd1 0b3d
00000110: fdfb 8e3d c201 0d3c 8894 c2bc 60e7 843d
00000120: f94f fe3c e012 a7bc ab3f b03a 3cd8 c8bc
00000130: 288a 193c a775 433c 9de3 46bc e838 1abd
00000140: 3137 393d 6836 503c 1efe dcbb cb62 43bd
00000150: afee d23c edbc 87bd 266b 0c3d e72b 12bd
00000160: 1bc8 393d c2fa 7bbc e242 353d 7693 15bd
00000170: 1ba7 633d cc01 4e3c 56b0 6a3b be8f 4bbd
00000180: 29fc 5dbd 50c3 443d 181f bd3c 6745 343d
00000190: 3833 d33c 5532 d33c 5568 a83b 7701 363d
000001a0: 0396 36bd 3900 e1bc 315c 27bd 67ef 543d
000001b0: d2b7 62bd d58d 54bd 5c9f 11bc 0084 183c
000001c0: 44f0 0e3d 9033 bfbb 6485 e7bc d430 303d
000001d0: 14e7 fb3c dcb0 8b3d 564b 6ebc ad02 cebc
000001e0: 8add 1cbd 31c7 dfbc 91e1 873c 807e 7e3d
000001f0: e02c efbb 089d 5d3d 67dd 1f3c 7ef5 2fbd
00000200: 867a cebc b666 343c 2c63 0e3d 077a 853c
00000210: 0069 213c 74f1 9e3c 7339 d23c db88 9a3c
00000220: 3f84 063d 71ba 073c 902b 91bc 35e8 ccbc
00000230: a59d 5abd de58 d2bc adcd c03b 648c 0bbd
00000240: af2d 4f3d 8737 9b3c c8bb 053d d7c9 213d
00000250: 6b5b 3fbd b906 14bd 56fd 7a3a 52ef 353d
00000260: 4dbe ef3c 0df9 483d acd2 523c 9ec6 6b3c
00000270: b250 36bd 26c8 5b3b d4f5 1ebd 6d80 0a3c
00000280: 3fd0 f7bc ccf4 e53c 99e2 5ebd 581b 7a3c
00000290: 328c 7e3c d788 043d de71 38bd e8cb 80bb
000002a0: 7171 4fbd 597e d4ba 6bd9 45bd 89c3 b7bc
000002b0: 08ca 0cbd 26d5 41bd e8ba d9bc 32fe 3d3d
000002c0: 1f0a 56ba 8828 24bd 4058 143d 9225 75bd
000002d0: dd32 553d befe dabc 83ea 723d f59e 13bd
000002e0: 78a7 02bc 65b9 4cbd c47b b23c a750 7abc
000002f0: 012e b73b ba25 eb3b 6ec1 de3c d89b 243c
00000300: c053 66bc e7c1 983c 1f6b 16bd 3400 133d
00000310: 029c 4dbd 0e77 483d 15b4 a83c 70d7 933b
00000320: 3e14 3e3c b555 96bc 58c5 1bbb 6ba3 a93b
00000330: d19f 8cbc c466 9ebc 9eb6 c8bc d8ac 083d
00000340: 38df 593c 3662 483d 0d87 6a3d c258 213d
00000350: c224 e13c e092 4fbd 6830 2c3d 8d99 193c
00000360: ce8b 1dbb c518 643d 9f7e b0bc 6249 94bc
00000370: 3f65 13bc 57a5 583c d0a1 3a3c 0bd9 35bd
00000380: 0010 513b 7cbe 583c ebfb c5bb 6055 3fbd
00000390: d6c8 4c3d 3931 fa3b f238 933c 745d 383d
000003a0: e929 15bd d4b4 2b3d c2e0 1e3d d091 3e3c
000003b0: ea79 273c 5a45 d33c 90f1 d4bc 744a 42bd
000003c0: be39 6c3c 81c7 fcbc 56b1 523d a821 1abd
000003d0: fb5d 093b 5069 64bd f066 c9bc cf6a 1abd
000003e0: b422 d43c f37e c7bc 46c4 77bd e1dc df3c
000003f0: 2a5d 1fbd 0589 5e3d 71fe 233d b4ef 6e3d
-0.029237784 0.025242398 0.020289468 0.044770844 -0.016072718 -0.009837338 0.01816157 0.03568474
-0.031851903 -0.046692178 -0.05160758 -0.046987575 0.009046562 0.047270328 -0.042730767 0.003837829
0.024569064 0.0051983846 0.03144165 0.01734346 0.029691255 0.0148791075 0.033364553 -0.033723738
-0.0022826316 -0.0059122466 -0.012151544 0.047751047 -0.039464027 0.0053247646 -0.04706551 -0.040958557
0.012887213 0.0025210236 -0.00038160413 0.024783205 0.029628916 -0.050416287 -0.018251201 -0.036118057
0.0542516 -0.012161762 -0.035240497 -0.015460989 0.01574393 -0.04282894 -0.061526828 -0.04583977
-0.022039019 0.020385949 0.029713338 0.013270815 0.0087369615 0.028818749 0.014511444 0.02777172
0.040225096 0.0012386648 -0.016119536 -0.028690038 0.04092611 0.014163772 0.04608995 -0.010185911
0.04602374 0.041265488 -0.050899632 0.034135386 0.06981657 0.008606376 -0.023752466 0.06489444
0.031043993 -0.020394742 0.0013446709 -0.024517171 0.009371318 0.011929906 -0.012139228 -0.037651926
0.04521865 0.012708284 -0.0067441603 -0.04770164 0.025748579 -0.066278316 0.034281872 -0.0356864
0.04535685 -0.01537961 0.044253238 -0.036517583 0.055579286 0.012573671 0.003581067 -0.04969763
-0.054195557 0.048037827 0.023086116 0.0440115 0.025781259 0.025780836 0.0051393905 0.04443499
-0.044576656 -0.027465926 -0.040859405 0.051986124 -0.055351086 -0.051893074 -0.008888092 0.009308815
0.034897104 -0.005835004 -0.028261848 0.043015316 0.030749835 0.068208426 -0.014544329 -0.02514776
-0.038297214 -0.027316662 0.01658705 0.06213236 -0.0072990507 0.054104835 0.009757376 -0.04295873
-0.025204908 0.011010816 0.034762546 0.016293539 0.009851694 0.019402243 0.02566216 0.018864086
0.032840963 0.008284197 -0.017720968 -0.025013069 -0.053372998 -0.02567714 0.0058838935 -0.034069434
0.050580677 0.018947376 0.032649785 0.03949913 -0.046718042 -0.036139224 0.0009574493 0.044417687
0.029265547 0.04906564 0.012867611 0.014390616 -0.04451055 0.0033536046 -0.03880866 0.008453471
-0.030250667 0.02807083 -0.05441532 0.015265308 0.015536355 0.032357063 -0.045030467 -0.0039305575
-0.050645296 -0.0016211971 -0.04830305 -0.022432106 -0.03437236 -0.047322415 -0.026578382 0.046384998
-0.00081649603 -0.040077716 0.036216974 -0.059850283 0.05205046 -0.026732799 0.05930568 -0.036040265
-0.007974498 -0.049981494 0.021787532 -0.015278018 0.005590201 0.007176128 0.027191844 0.010046922
-0.0140580535 0.018647147 -0.036723252 0.035888866 -0.05019761 0.048941664 0.020593682 0.004511766
0.011601506 -0.018351415 -0.002376875 0.0051769516 -0.01716605 -0.019336112 -0.024501141 0.03336796
0.013297848 0.048921786 0.0572577 0.039391287 0.027483348 -0.05067718 0.04203835 0.009374988
-0.002403963 0.055687685 -0.021544753 -0.018101398 -0.008996307 0.013223014 0.011391118 -0.04439644
0.0031900406 0.013229009 -0.006041994 -0.04671228 0.04999622 0.0076352623 0.01797149 0.045011
-0.03641692 0.041920498 0.038788565 0.011631444 0.010221938 0.025789905 -0.025994092 -0.047434285
0.014418064 -0.03085685 0.051438652 -0.037629753 0.0020960558 -0.055764496 -0.024585217 -0.037699517
0.025895454 -0.024352526 -0.060489915 0.027327003 -0.038907208 0.05432989 0.040037576 0.058334067

linear2.bias f4 [3]
00000000: 6a3a ad3b d66b 6dbd 542a 14bd
0.0052865045 -0.05796417 -0.03617318
